checkpoint.pth (torch_old, 46016 bytes, 6 tensors)

fc1.weight f4 [64, 37]
0.041831177 -0.07663639 0.026289903 0.056220736 0.040257465 -0.13537484 0.17686275 0.021722477
0.18923742 0.67023486 -0.024972573 -0.062376387 0.13537171 0.15426163 -0.03681032 0.030870453
-0.046358343 -0.1433545 0.019473998 0.21339212 0.043220185 0.12450113 -0.1397871 0.04872136
0.041876756 -0.03316116 -0.032420896 0.016368499 0.16791426 0.0703292 0.028011693 0.057936493
-0.07630446 0.14337367 0.26198363 -0.03531016 0.052078135 -0.042524997 0.10571256 -0.016639715
-0.01107831 0.10042785 0.05154132 0.10001773 -0.13892493 -0.21931122 -0.59952235 0.106373355
0.16220038 -0.03222146 0.106063016 -0.05217491 0.09709037 -0.061529912 0.031062584 0.060163345
0.1056985 0.066003166 -0.07834777 0.069694206 0.07197973 0.025160676 -0.003593004 0.22500323
0.004651323 0.06769008 -0.09448704 -0.09876107 0.07417273 -0.008246363 -0.108773634 0.04917681
-0.051851723 0.056629896 0.1400442 -0.15511282 0.06527502 0.015874978 0.073902026 -0.03191411
-0.25882083 -0.096464515 0.046441894 0.21573816 -0.049569186 0.11149584 0.09682153 -0.027649527
-0.04146025 0.06848874 -0.24165158 -0.10476093 0.052394643 0.25462323 -0.010853271 -0.13451827
-0.0020821837 -0.16135031 -0.039436255 0.18393175 0.04821756 0.04421313 0.19969806 0.44411162
0.061454628 -0.09776192 -0.17142303 -0.06465689 -0.10908723 0.056139667 0.077914916 0.16103968
-0.1453341 -0.12810296 -0.12602946 0.08129317 -0.057545602 -0.16941804 0.10973024 -0.026214002
0.027251234 0.062418446 0.11562453 0.06731793 0.04911584 0.02807189 0.06756812 -0.1586286
-0.117718354 0.024685865 0.09057074 -0.19307433 0.032583263 0.15875001 -0.07345015 0.054331437
-0.11691398 -0.019255582 -0.039290927 0.10427854 0.09286119 -0.078233324 -0.154471 -0.040457916
-0.009747749 0.11269919 -0.076256335 -0.06786333 -0.009763985 -0.124780945 0.068898275 -0.12263675
-0.051143117 -0.1377882 -0.2621206 0.104280256 -0.038643565 0.21138291 0.011311531 -0.06031263
0.052061964 0.05595099 -0.012692904 -0.086722314 -0.007475122 -0.011122528 0.010043656 -0.15034348
0.14174281 0.055366877 0.05475255 -0.044702157 -0.005709763 0.09461654 0.07501568 0.04213437
0.0122427745 0.014877621 0.10524899 -0.04253985 0.10316047 -0.026329188 0.075950846 -0.059690185
0.025524033 0.051827114 -0.16657612 0.02349739 -0.10677365 0.07601357 -0.018091105 -0.0012834006
-0.1309708 0.08957215 0.4921443 0.0735458 0.0067462055 -0.089622274 0.14365481 -0.006177975
-0.13359301 -0.001718768 -0.023827357 0.07007102 0.14868833 0.1704826 -0.0516136 -0.029808693
-0.03255788 -0.08280763 -0.17819688 0.13435492 -0.07724663 0.20093572 0.14294943 0.011856667
-0.04079591 -0.054460946 -0.17775457 -0.40637258 -0.027168045 0.12561454 0.08104492 -0.05480693
0.14801328 -0.03088343 0.012760008 -0.038480442 -0.16979581 0.14898509 0.08579991 -0.28276226
0.029920662 0.02046449 -0.046043932 -0.06036656 -0.05059971 0.08014529 0.1254131 0.050619315
0.02315812 -0.050086755 -0.052409764 -0.06502958 0.0522445 0.1307245 0.12457736 0.021360299
-0.014991495 -0.16077153 0.0037854305 -0.30595276 -0.116272524 -0.097669534 0.07105806 0.07921341
00000000: 2b57 2b3d 8af3 9cbd ec5d d73c b747 663d
00000010: 03e5 243d b49f 0abe 821b 353e 56f3 b13c
00000020: 74c7 413e 8394 2b3f 4893 ccbc 627e 7fbd
00000030: e29e 0a3e c3f6 1d3e 6bc6 16bd 08e4 fc3c
00000040: 3fe2 3dbd 86cb 12be ef87 9f3c 7783 5a3e
00000050: a607 313d 73fa fe3d 5924 0fbe 0c90 473d
00000060: f686 2b3d ffd3 07bd c6cb 04bd 3b17 863c
00000070: b7f1 2b3e c108 903d c778 e53c d14e 6d3d
00000080: 8345 9cbd 8cd0 123e b822 863e 63a1 10bd
00000090: e24f 553d b12e 2ebd d47f d83d 0350 88bc
000000a0: cd81 35bc 1ead cd3d fe1c 533d 18d6 cc3d
000000b0: 5642 0ebe 1f93 60be 4c7a 19bf 46da d93d
000000c0: db17 263e a6fa 03bd 9137 d93d 5cb5 55bd
000000d0: 51d7 c63d ca06 7cbd f676 fe3c d76d 763d
000000e0: 7578 d83d ab2c 873d cc74 a0bd d6bb 8e3d
000000f0: 1c6a 933d c31d ce3c 9b78 6bbb 3f67 663e
00000100: 206a 983b 19a1 8a3d 6c82 c1bd 3e43 cabd
00000110: dfe7 973d c11b 07bc b6c4 debd 9f6d 493d
00000120: 7962 54bd c0f4 673d bf67 0f3e e5d5 1ebe
00000130: e9ae 853d 3e0c 823c f259 973d 5fb8 02bd
00000140: 2a84 84be 308f c5bd db39 3e3d 77ea 5c3e
00000150: 0f09 4bbd ee57 e43d 5e4a c63d 4381 e2bc
00000160: 39d2 29bd d343 8c3d 8373 77be e68c d6bd
00000170: c49b 563d fa5d 823e ebd1 31bc 28bf 09be
00000180: 3f75 08bb 0439 25be e987 21bd 9b58 3c3e
00000190: c77f 453d d418 353d a67d 4c3e 9962 e33e
000001a0: d9b7 7b3d 6737 c8bd 8589 2fbe d56a 84bd
000001b0: 2069 dfbd b5f2 653d db91 9f3d 96e7 243e
000001c0: 76d2 14be 6c2d 03be de0d 01be 097d a63d
000001d0: f0b4 6bbd ec7b 2dbe 40ba e03d bfbe d6bc
000001e0: fb3d df3c 7caa 7f3d 8ecc ec3d fcdd 893d
000001f0: b12d 493d 05f7 e53c 2861 8a3d 896f 22be
00000200: 5216 f1bd 033a ca3c 277d b93d 47b5 45be
00000210: 0776 053d 5d8f 223e 086d 96bd a48a 5e3d
00000220: 9970 efbd e2bd 9dbc 86ef 20bd fd8f d53d
00000230: 022e be3d cb38 a0bd a52d 1ebe 33b7 25bd
00000240: 06b5 1fbc d5ce e63d 482c 9cbd eefb 8abd
00000250: 1ff9 1fbc 278d ffbd 8a1a 8d3d fa28 fbbd
00000260: 727b 51bd 5a18 0dbe ac34 86be e390 d53d
00000270: b748 1ebd c374 583e 0054 393c 600a 77bd
00000280: ed3e 553d de2c 653d e6f5 4fbc 789b b1bd
00000290: def1 f4bb 443b 36bc 268e 243c a4f3 19be
000002a0: 0725 113e 61c8 623d 3644 603d 9c19 37bd
000002b0: f718 bbbb 51c6 c13d d2a1 993d 1795 2c3d
000002c0: eb95 483c 44c1 733c c88c d73d 443e 2ebd
000002d0: cc45 d33d 4fb0 d7bc 1e8c 9b3d b27d 74bd
000002e0: c717 d13c ab48 543d ee92 2abe 997d c03c
000002f0: 25ac dabd 01ad 9b3d cc33 94bc c737 a8ba
00000300: 361d 06be 9a71 b73d 56fa fb3e 2e9f 963d
00000310: 460f dd3b e28b b7bd 3f1a 133e 9c70 cabb
00000320: 9bcc 08be 4948 e1ba 9731 c3bc 6581 8f3d
00000330: c141 183e fe92 2e3e c868 53bd 5c31 f4bc
00000340: 695b 05bd 0c97 a9bd 3e79 36be 5694 093e
00000350: 7b33 9ebd 18c2 4d3e 5661 123e 7742 423c
00000360: 9d19 27bd 7112 5fbd 4b05 36be 1110 d0be
00000370: 858f debc 19a1 003e e1fa a53d 3b7d 60bd
00000380: cb90 173e 3fff fcbc 5a0f 513c ab9d 1dbd
00000390: f4de 2dbe 8c8f 183e ddb7 af3d 37c6 90be
000003a0: 2d1c f53c 25a5 a73c 9098 3cbd ed42 77bd
000003b0: a441 4fbd 3723 a43d 4b6c 003e 3356 4f3d
000003c0: 19b6 bd3c c527 4dbd 9fab 56bd 3a2e 85bd
000003d0: 54fe 553d a5dc 053e 6a22 ff3d cbfb ae3c
000003e0: e39e 75bc 4ba1 24be fc14 783b d7a5 9cbe
000003f0: 4a20 eebd f706 c8bd e386 913d a43a a23d

fc1.bias f4 [64]
-0.012012603 -0.013704762 -0.026134554 -0.029010544 0.023470754 0.13085614 0.13403587 -0.11161551
0.033767395 -0.10285654 0.06320514 -0.08656074 -0.086583726 -0.10214993 -0.12778004 -0.04143769
-0.009892514 -0.10454044 0.0830005 -0.09957627 -0.020411009 0.09428857 0.14914694 0.09559187
-0.06518207 0.12430471 -0.034334797 0.10770958 -0.0814156 0.1399808 -0.10223641 0.062197242
0.13139938 0.0072967806 0.124219604 0.089475214 -0.01993111 0.04866205 0.037659988 -0.07113372
-0.15266989 0.13037784 -0.15487655 0.1057032 -0.051165234 0.026152447 0.03412924 -0.087175414
-0.004719237 -0.1781805 -0.07375234 0.12486504 0.16220471 -0.14285764 -0.09545696 0.047657266
-0.121870056 0.0108393105 -0.034133594 0.029822653 -0.1088895 -0.12623332 0.014267032 0.1480949
00000000: 82d0 44bc f089 60bc 2218 d6bc 85a7 edbc
00000010: bd45 c03c 27ff 053e b340 093e ac96 e4bd
00000020: ae4f 0a3d 73a6 d2bd b271 813d c246 b1bd
00000030: cf52 b1bd fc33 d1bd c5d8 02be 91ba 29bd
00000040: 3614 22bc 4c19 d6bd 2bfc a93d a5ee cbbd
00000050: fd34 a7bc 5e1a c13d fab9 183e acc5 c33d
00000060: 2d7e 85bd 7893 fe3d a5a2 0cbd d796 dc3d
00000070: 39bd a6bd 2057 0f3e 5361 d1bd 89c2 7e3d
00000080: 8f8d 063e d519 ef3b d966 fe3d c83e b73d
00000090: 9146 a3bc dc51 473d 5c41 1a3d 8eae 91bd
000000a0: 7f55 1cbe c581 053e f597 1ebe eb7a d83d
000000b0: a392 51bd a83d d63c 1acb 0b3d 0689 b2bd
000000c0: d4a3 9abb f374 36be 780b 97bd 3eb9 ff3d
000000d0: fe18 263e 4649 12be f07e c3bd 4434 433d
000000e0: 0297 f9bd 5d97 313c abcf 0bbd a34e f43c
000000f0: 7501 dfbd 4f43 01be 45c0 693c 31a6 173e

fc2.weight f4 [128, 64]
0.080399096 0.0845194 -0.017474448 0.1024871 -0.060972 0.061360534 0.037173536 -0.09431871
-0.017685005 0.122086324 -0.03245026 -0.109798275 0.1105669 -0.0063030166 0.0076773777 -0.096676834
0.13951293 0.21320312 -0.08510136 0.07018078 0.12567297 -0.10545358 0.032368395 -0.07749935
0.10789543 0.09961225 0.0893926 -0.009394332 0.036606 -0.04300006 0.101183794 0.049730215
-0.103254 -0.091927536 0.013440859 -0.09661132 -0.016181914 0.06799947 0.1151621 0.018902218
-0.03949003 -0.11638487 0.01281489 -0.012326274 0.05860363 -0.09740658 0.053285807 -0.038980283
-0.13539885 0.052658606 -0.10169415 -0.1288673 0.08680362 -0.06981167 0.08438975 -0.025767492
-0.08565665 -0.011672257 -0.05260746 0.03129981 0.07658828 -0.08346209 -0.013399117 -0.013852416
-0.025136227 0.10149691 0.080342636 -0.07668669 0.046258055 0.037684917 -0.0942267 0.065511726
0.104506224 -0.041744377 0.18096729 0.09068021 0.029551586 0.019396441 0.07989156 0.055741843
0.1319944 -0.012351816 0.046411064 0.0734511 -0.10488128 0.037471764 -0.08136403 -0.04545568
0.11043933 -0.0887773 -0.1353585 0.12558663 0.055447 -0.004144006 0.08278249 -0.002485569
-0.047059815 -0.031108703 0.02774888 -0.1116262 -0.1052559 -0.04436935 -0.01159358 0.072266206
-0.03876108 -0.072638854 -0.12210198 -0.01162282 -0.05898243 -0.07255308 -0.052368496 0.041441113
-0.077821 -0.08462765 0.046986815 0.072221756 0.07122172 0.0097652655 0.05466168 0.042488597
-0.06449835 0.09625374 0.028318353 -0.025676621 0.009516487 0.122214854 0.08818002 0.12065091
-0.08792065 -0.0702181 0.022140754 -0.022922307 -0.013246481 0.086833045 -0.13526365 -0.0328406
0.008850941 -0.07179811 -0.12693743 -0.080717996 0.07274233 -0.099823825 0.008525825 0.078008704
-0.16520742 0.014949803 -0.040301036 -0.10446957 0.04652385 0.0378503 0.058005948 0.078048475
0.07272993 0.010878067 -0.10187321 -0.06455013 -0.10069265 -0.096585594 -0.102767125 0.09270982
0.011395933 0.12373748 0.031133033 0.10161872 -0.0033068724 0.060551632 0.09252904 -0.09862265
-0.13853182 0.07959766 0.07808912 -0.013145144 -0.08251173 -0.033195328 -0.094593704 -0.05543855
0.049673412 0.013508543 0.029352563 -0.008129895 0.036288504 0.10397458 -0.0009389694 -0.0044919057
0.050545536 0.055812273 0.08080401 -0.029723743 -0.163053 -0.05729792 0.12217329 -0.049110834
-0.23160075 0.015397693 0.07214942 0.10197136 -0.17781341 -0.04744924 0.1290231 -0.005665748
0.08098756 -0.09739283 0.21818627 -0.06512642 -0.058157653 0.05570295 -0.22470388 0.11058984
0.12152787 -0.032174762 0.06581024 -0.09968951 0.06299108 -0.00010870948 0.03213563 -0.0057388097
0.0045640967 0.064292856 -0.0020787714 0.016291084 0.09803488 0.07685655 -0.12652726 0.053763393
-0.1356114 -0.13931406 0.042493604 -0.12175331 -0.03073436 0.022728216 -0.23386899 0.06101793
-0.009352401 -0.05920255 0.016965797 -0.12480544 -0.039738804 -0.21275234 0.13466981 -0.051408384
-0.036015026 0.09120571 -0.008264425 0.16268793 0.05140789 -0.06827798 -0.07486329 0.1425192
0.0007550184 -0.03337202 0.00087807485 0.08571629 0.002260893 0.060836777 -0.0030242973 0.0698771
00000000: 48a8 a43d 8218 ad3d 9326 8fbc c2e4 d13d
00000010: c7bd 79bd 2f55 7b3d 4743 183d 2b2a c1bd
00000020: 25e0 90bc 6508 fa3d 90ea 04bd ebdd e0bd
00000030: e670 e23d 8989 cebb 8392 fb3b 81fe c5bd
00000040: 7adc 0e3e eb51 5a3e 9f49 aebd f1ba 8f3d
00000050: 6ab0 003e 0cf8 d7bd b994 043d fbb7 9ebd
00000060: 47f8 dc3d 8201 cc3d 7813 b73d afea 19bc
00000070: 2cf0 153d d520 30bd 7339 cf3d e9b1 4b3d
00000080: d576 d3bd 8144 bcbd 0c37 5c3c 28dc c5bd
00000090: ef8f 84bc 4e43 8b3d 1bda eb3d d3d8 9a3c
000000a0: 4cc0 21bd 315b eebd 8bf5 513c 24f4 49bc
000000b0: 5c0a 703d 1a7d c7bd 3842 5a3d caa9 1fbd
000000c0: ffa5 0abe 8db0 573d 0645 d0bd caf5 03be
000000d0: 19c6 b13d 6cf9 8ebd 89d4 ac3d 5916 d3bc
000000e0: c16c afbd ff3c 3fbc ec7a 57bd 3b34 003d
000000f0: 51da 9c3d 2cee aabd f887 5bbc 3ef5 62bc
00000100: 7dea cdbc 9ddd cf3d ae8a a43d e90d 9dbd
00000110: 1679 3d3d 805b 1a3d eef9 c0bd 032b 863d
00000120: 5c07 d63d 27fc 2abd 7d4f 393e 8cb6 b93d
00000130: 2b16 f23c 49e5 9e3c 309e a33d 8f51 643d
00000140: 8a29 073e 455f 4abc 8719 3e3d 886d 963d
00000150: ffcb d6bd fe7b 193d 2fa2 a6bd bc2f 3abd
00000160: 042e e23d e0d0 b5bd 6b9b 0abe c899 003e
00000170: 651c 633d 71ca 87bb de89 a93d eee4 22bb
00000180: cbc1 40bd aed7 febc 9f51 e33c 479c e4bd
00000190: 6890 d7bd a3bc 35bd 00f3 3dbc 4e00 943d
000001a0: f0c3 1ebd aec3 94bd 9a10 fabd a46d 3ebc
000001b0: 8f97 71bd b696 94bd 5980 56bd 28be 293d
000001c0: 9e60 9fbd 4351 adbd 3f75 403d 00e9 933d
000001d0: b1dc 913d 7efe 1f3c ede4 5f3d 8608 2e3d
000001e0: b617 84bd ae20 c53d e4fb e73c c757 d2bc
000001f0: 0aeb 1b3c c84b fa3d ba97 b43d d317 f73d
00000200: be0f b4bd 82ce 8fbd 8760 b53c 90c7 bbbc
00000210: c507 59bc 86d5 b13d 8e82 0abe dd83 06bd
00000220: 8a03 113c e30a 93bd e3fb 01be 7a4f a5bd
00000230: eef9 943d 6f70 ccbd e7af 0b3c 07c3 9f3d
00000240: 222c 29be 05f0 743c b312 25bd 24f4 d5bd
00000250: cb8f 3e3d eb08 1b3d a597 6d3d e1d7 9f3d
00000260: 6ef3 943d ec39 323c e7a2 d0bd dc32 84bd
00000270: f337 cebd abce c5bd 9277 d2bd a5de bd3d
00000280: 02b6 3a3c 136a fd3d b40a ff3c 7a1d d03d
00000290: 1db8 58bb fd04 783d de7f bd3d acfa c9bd
000002a0: 49db 0dbe 1904 a33d 30ed 9f3d bb5e 57bc
000002b0: e9fb a8bd d3f7 07bd 58ba c1bd 8813 63bd
000002c0: 5976 4b3d f052 5d3c c974 f03c 4033 05bc
000002d0: 41a3 143d a0f0 d43d 2b25 76ba d630 93bb
000002e0: d608 4f3d 699b 643d 937c a53d 357f f3bc
000002f0: 5ef7 26be 39b1 6abd fd35 fa3d 7128 49bd
00000300: bf28 6dbe 9b46 7c3c 13c3 933d 5cd6 d03d
00000310: b814 36be 225a 42bd a21e 043e bda7 b9bb
00000320: cedc a53d e475 c7bd 396c 5f3e 0061 85bd
00000330: b836 6ebd c728 643d c618 66be ed7c e23d
00000340: 9be3 f83d afc9 03bd 85c7 863d 042a ccbd
00000350: 7801 813d f5fa e3b8 a6a0 033d a00c bcbb
00000360: 6b8e 953b f9ab 833d ff3b 08bb e174 853c
00000370: 83c6 c83d f866 9d3d 5d90 01be 0137 5c3d
00000380: b7dd 0abe 58a8 0ebe c60d 2e3d cd59 f9bd
00000390: a0c6 fbbc 8630 ba3c 5a7b 6fbe f0ed 793d
000003a0: d03a 19bc 607e 72bd dbfb 8a3c ff99 ffbd
000003b0: 28c5 22bd c0db 59be e2e6 093e 9991 52bd
000003c0: 7e84 13bd 0fca ba3d 8367 07bc aa97 263e
000003d0: 1491 523d 53d5 8bbd ed51 99bd 8ef0 113e
000003e0: 6dec 453a 19b1 08bd 9b2e 663a 068c af3d
000003f0: 7d2b 143b fc2f 793d 4a33 46bb ba1b 8f3d

fc2.bias f4 [128]
0.07385873 0.08603251 0.04039847 -0.048909012 0.087041676 0.10023552 -0.0063714427 0.11174127
-0.0060867616 -0.14160559 0.071314104 -0.1180835 0.052243765 0.13148786 -0.07445003 0.03980681
0.14212723 -0.10387716 -0.046465643 0.07564889 0.09745992 0.069071844 -0.022169549 0.084426485
0.051299803 -0.08060742 -0.06363572 -0.078476794 -0.058847442 0.034748677 0.048530724 -0.012905673
-0.109167986 0.004965442 0.07013511 0.012206967 -0.041266292 0.13111597 0.075362384 0.091554746
-0.093327895 -0.03553274 0.07865285 0.116325125 0.05167173 -0.12553623 -0.119333014 0.022608044
-0.030673198 -0.011419831 0.12915005 0.0030375489 -0.13380268 0.017504152 -0.056110434 0.049061198
-0.014899934 0.03415253 -0.06692371 -0.019459875 0.08154573 0.14718197 -0.12490388 -0.062050663
-0.047606725 -0.09389308 -0.121174596 -0.09846859 0.022176122 0.013718584 -0.048738394 -0.08128133
-0.083916254 0.010302092 -0.08480318 0.09930723 -0.08364107 -0.08007888 -0.08441636 -0.11548944
0.16861959 0.0574876 0.066035874 0.015043086 -0.016570784 0.04303285 -0.102762 -0.08377448
-0.016950235 -0.037614077 0.039420936 -0.019077558 0.097646855 0.017658943 -0.110150486 -0.02118188
0.017189886 0.022864481 -0.04422222 0.06278892 0.02594657 -0.00606165 -0.06823176 -0.067109525
-0.12683998 -0.061839897 0.0853018 0.09046994 0.01914231 -0.107568525 0.059772257 -0.1059221
0.019812053 0.089601256 -0.07093483 -0.12070122 -0.06776105 -0.049190678 0.040955473 -0.09639572
0.044640303 0.066473044 -0.11531434 -0.10601262 0.096436486 -0.061396662 -0.026545191 0.093647264
00000000: 3f43 973d d031 b03d de78 253d d154 48bd
00000010: e842 b23d 4848 cd3d 89c7 d0bb 9bd8 e43d
00000020: 7573 c7bb 0e01 11be 210d 923d c3d5 f1bd
00000030: 8ffd 553d c1a4 063e 4279 98bd 770c 233d
00000040: cd89 113e 8cbd d4bd c252 3ebd ceed 9a3d
00000050: 1199 c73d 8a75 8d3d ea9c b5bc cbe7 ac3d
00000060: be1f 523d 8115 a5bd 7253 82bd 71b8 a0bd
00000070: 040a 71bd a154 0e3d 27c8 463d 5172 53bc
00000080: 7793 dfbd 26b5 a23b ffa2 8f3d bbff 473c
00000090: d806 29bd 4443 063e 9857 9a3d 0e81 bb3d
000000a0: b222 bfbd c78a 11bd bf14 a13d de3b ee3d
000000b0: bca5 533d 928c 00be de64 f4bd 8134 b93c
000000c0: 5c46 fbbc 3e1a 3bbc e93f 043e 9d11 473b
000000d0: 9203 09be de64 8f3c 0ed4 65bd 65f4 483d
000000e0: da1e 74bc 86e3 0b3d 4c0f 89bd 516a 9fbc
000000f0: 7301 a73d dfb6 163e 9bcd ffbd d628 7ebd
00000100: 45ff 42bd 044b c0bd 632a f8bd e6a9 c9bd
00000110: b3aa b53c e9c3 603c e9a1 47bd d376 a6bd
00000120: 49dc abbd 1bca 283c 4aad adbd 9761 cb3d
00000130: 024c abbd 6500 a4bd 7ce2 acbd ba85 ecbd
00000140: 9daa 2c3e 1e78 6b3d d13d 873d 4777 763c
00000150: 74bf 87bc 3743 303d e274 d2bd f491 abbd
00000160: 38db 8abc 3811 1abd d977 213d 8a48 9cbc
00000170: 13fb c73d 7da9 903c 9496 e1bd 9f85 adbc
00000180: ced1 8c3c 4b4e bb3c 5c22 35bd 7a97 803d
00000190: e78d d43c cea0 c6bb 18bd 8bbd b870 89bd
000001a0: 57e2 01be d54b 7dbd b6b2 ae3d 4e48 b93d
000001b0: 55d0 9c3c e34c dcbd c1d3 743d b0ed d8bd
000001c0: e34c a23c dd80 b73d 4846 91bd 3432 f7bd
000001d0: 4ec6 8abd 2a7c 49bd edc0 273d 1f6b c5bd
000001e0: c0d8 363d 0523 883d ed29 ecbd 251d d9bd
000001f0: 7e80 c53d 117b 7bbd 4d75 d9bc 23ca bf3d

fc6.weight f4 [4, 128]
-0.008808772 0.029379588 -0.047527898 0.20385975 0.17060506 0.121355 0.08270592 0.041092426
-0.0404831 -0.019499531 0.086201414 -0.02026111 0.07632205 0.1038638 -0.041768663 0.043859705
-0.039350808 -0.062531754 0.003808273 -0.0578262 0.095464826 0.17632921 0.07665637 -0.006775504
0.010219334 0.032583274 -0.068787344 0.17758594 0.020836126 0.06333179 0.08434213 0.026056668
0.0938851 0.09301994 0.0707848 0.0042148544 0.048379824 0.033436697 0.103609614 0.056836445
-0.026917094 -0.056332286 -0.12149685 -0.044654097 0.14018959 -0.026609711 0.07116412 0.015939401
-0.21683224 -0.03168346 0.09538502 -0.019179698 0.050558887 0.18149582 0.11880524 -0.09360656
0.08427597 -0.026110906 0.18965684 -0.10633557 0.15580158 0.021122115 0.0093269525 -0.024064055
-0.054456946 0.15474024 0.04206148 0.027456949 0.1380757 0.2311525 0.048942585 -0.018318912
0.07984695 -0.041025393 0.06713991 -0.06155769 -0.027995082 -0.0044961814 0.020420378 0.0501261
0.03956194 0.12331936 0.1373833 -0.00027443474 -0.053643446 -0.067629404 -0.0698397 -0.09809945
0.023905706 0.07438264 -0.018154252 0.2054893 -0.07276144 -0.1287541 -0.06621569 0.1025057
0.07203545 -0.05513926 0.062463466 0.00777063 -0.051378824 -0.072129525 0.011981278 0.046928246
-0.032445773 -0.0089377845 -0.09311039 -0.09325461 -0.021030052 0.0028473435 0.12091365 0.009471152
0.018117627 0.060705494 -0.0017011795 -0.057614766 0.06951788 0.06318954 -0.024844483 0.01131229
-0.12057578 -0.049144816 0.00029324926 -0.024186507 0.04768567 0.04376611 -0.011346182 -0.05230663
0.0013579341 0.073584504 -0.001401842 0.07846091 -0.04611557 0.12701476 0.0056205555 0.08406476
-0.06659128 0.026829716 0.041589737 -0.002033323 0.09296723 -0.009077961 -0.025262611 -0.019144977
0.08370072 -0.06775195 0.04674278 -0.0045242934 0.05817625 0.12928537 -0.018803112 0.07220692
0.056646623 0.036471467 0.023224952 0.1421869 0.047069248 -0.04563445 0.09339411 -0.0070447885
-0.0027034138 0.08930923 0.027772438 -0.022446714 0.050474428 0.11459873 -0.008800543 -0.0022857862
-0.017704822 0.03377092 0.009659518 0.016785206 0.08666674 -0.05770436 -0.054160878 -0.058271114
-0.018030275 -0.013066663 0.14374927 -0.01214044 0.059817135 -0.0104510095 -0.035905853 0.024474148
0.051261615 0.058960423 0.11409452 -0.08157214 0.10523023 0.06990511 -0.025631202 0.003453798
0.014163177 0.07741901 -0.063478254 -0.036885038 0.13354138 0.043078348 -0.03306712 0.012000969
0.04835166 0.0043248474 0.020811632 0.044706807 -0.010017882 0.04247351 0.024975738 0.07707995
0.095964305 -0.016261237 0.004623378 -0.027348472 -0.073274024 0.003822601 -0.061857834 0.055764634
0.079593174 -0.030969784 0.053083953 0.035487037 -0.01981583 -0.031076035 -0.06408162 -0.024856772
-0.056139622 0.017067071 0.044863984 0.057289165 -0.060747955 -0.03049785 -0.01823923 0.02172142
-0.034637712 0.04204011 0.007949511 0.060805317 0.023355188 -0.016959824 0.03813498 0.074594855
0.04453526 0.07484747 0.001970321 -0.03648856 0.101313956 -0.044998117 -0.052421186 -0.10061827
-0.01621978 -0.03222499 0.0007736368 0.039249297 -0.00095872657 -0.047230534 0.036356755 -0.015382157
00000000: ab52 10bc 76ad f03c 9dac 42bd 9cc0 503e
00000010: 18b3 2e3e f888 f83d b961 a93d 8850 283d
00000020: 9bd1 25bd 7bbd 9fbc 5e8a b03d a1fa a5bc
00000030: bc4e 9c3d 8bb6 d43d 9e15 2bbd 3ca6 333d
00000040: 502e 21bd a610 80bd 3894 793b 2adb 6cbd
00000050: 1083 c33d a58f 343e 04fe 9c3d 0c05 debb
00000060: fe6e 273c 0a76 053d 61e0 8cbd 17d9 353e
00000070: 86b0 aa3c 19b4 813d 91bb ac3d cb74 d53c
00000080: d546 c03d 3d81 be3d 9ff7 903d c31c 8a3b
00000090: ec29 463d ebf4 083d 4731 d43d 55cd 683d
000000a0: 3d81 dcbc afbc 66bd 57d3 f8bd 37e7 36bd
000000b0: dc8d 0f3e 9cfc d9bc 7fbe 913d 5993 823c
000000c0: 4509 5ebe 84c6 01bd 3959 c33d be1e 9dbc
000000d0: d616 4f3d 0ada 393e 2950 f33d ccb4 bfbd
000000e0: e198 ac3d 8ae6 d5bc 6735 423e 77c6 d9bd
000000f0: 738a 1f3e 4908 ad3c 13d0 183c fb21 c5bc
00000100: 3f0e 5fbd 3a74 1e3e a948 2c3d 65ed e03c
00000110: b763 0d3e 3eb3 6c3e 0578 483d 8b11 96bc
00000120: cc86 a33d 3e0a 28bd a680 893d eb23 7cbd
00000130: f155 e5bc b454 93bb a348 a73c 0751 4d3d
00000140: b30b 223d dc8e fc3d 35ae 0c3e 02e2 8fb9
00000150: 3bb9 5bbd 4981 8abd 1e08 8fbd 5de8 c8bd
00000160: e6d5 c33c ed55 983d 3ab8 94bc c96b 523e
00000170: f303 95bd 1dd8 03be 179c 87bd 82ee d13d
00000180: 5287 933d b4d9 61bd b1d9 7f3d c5a0 fe3b
00000190: 9a72 52bd a5b8 93bd 1f4d 443c d537 403d
000001a0: dce5 04bd c96f 12bc a9b0 bebd 46fc bebd
000001b0: 3747 acbc 7f9a 3a3b 93a1 f73d e42c 1b3c
000001c0: 6b6b 943c 53a6 783d 1dfa deba 76fd 6bbd
000001d0: 645f 8e3d 8469 813d a886 cbbc 2f57 393c
000001e0: 6ff0 f6bd 134c 49bd 40bf 9939 c822 c6bc
000001f0: 0d52 433d 1844 333d 56e5 39bc 7a3f 56bd
00000200: b5fc b13a 79b3 963d 03be b7ba 1db0 a03d
00000210: aee3 3cbd 2810 023e a32c b83b 252a ac3d
00000220: 0261 88bd fec9 db3c 005a 2a3d 8041 05bb
00000230: 9a65 be3d babb 14bc 89f3 cebc edd5 9cbc
00000240: 486b ab3d 89c1 8abd 5b75 3f3d 8640 94bb
00000250: 384a 6e3d 6263 043e fc08 9abc 39e1 933d
00000260: 4a06 683d 1b63 153d 4142 be3c 7199 113e
00000270: afcb 403d 30eb 3abd 6945 bf3d f8d7 e6bb
00000280: c22b 31bb c2e7 b63d 0683 e33c 2ce2 b7bc
00000290: 46be 4e3d bdb2 ea3d 2730 10bc 21cd 15bb
000002a0: b409 91bc 6053 0a3d f442 1e3c 2181 893c
000002b0: 557e b13d 685b 6cbd ccd7 5dbd b1ad 6ebd
000002c0: 3ab4 93bc 8f15 56bc 0233 133e b2e8 46bc
000002d0: d002 753d b63a 2bbc 0412 13bd 027e c83c
000002e0: b3f7 513d 7c80 713d 63aa e93d 4b0f a7bd
000002f0: f282 d73d 692a 8f3d 87f8 d1bc 1d59 623b
00000300: ac0c 683c dc8d 9e3d e300 82bd c414 17bd
00000310: 12bf 083e ec72 303d 6371 07bd b69f 443c
00000320: 640c 463d 73b7 8d3b 287d aa3c 7c1e 373d
00000330: 0b22 24bc b4f8 2d3d eb99 cc3c 18dc 9d3d
00000340: ef88 c43d 4936 85bc b57f 973b e709 e0bc
00000350: b110 96bd 9a84 7a3b a45e 7dbd 7569 643d
00000360: bf01 a33d 58b4 fdbc 8f6e 593d db5a 113d
00000370: cf54 a2bc 2b93 febc 393d 83bd 6ea0 cbbc
00000380: a9f2 65bd 3ed0 8b3c 4cc3 373d 0ba8 6a3d
00000390: d9d2 78bd a1d6 f9bc 706a 95bc 1ff1 b13c
000003a0: 46e0 0dbd 4032 2c3d aa3e 023c ff0e 793d
000003b0: 6153 bf3c 54ef 8abc 6d33 1c3d 30c5 983d
000003c0: 9b6a 363d a149 993d 8020 013b 0775 15bd
000003d0: b17d cf3d f24f 38bd 99b7 56bd f410 cebd
000003e0: 58df 84bc 5afe 03bd e3cd 4a3a dfc3 203d
000003f0: 0d53 7bba ce74 41bd d2ea 143d 7105 7cbc

fc6.bias f4 [4]
0.0643641 -0.030444998 -0.0280566 -0.050338846
00000000: 53d1 833d ca67 f9bc f4d6 e5bc 1b30 4ebd
